…
0, config='configs/test_config.yaml', cos=True, data='cifar10/cifar10', dim=128, final_lr=0.0048, gpu=0, hidden_dim=4096, kmeans_cls=None, lars=True, lr=4.8, model='self-classifier', num_classes=10, num_hidden=2, num_samples_per_class=9, pretrained='./saved/cifar10/alexnet/full-cifar10/from_150eps/model_best.pth.tar', print_freq=10, queue_len=1000, save_path='./test_results/alexnet/200eps/', seed=None, sgd=True, subset=0, subset_file=None, tau=0.1, use_bn=True, **{'cls-size': 10, 'hidden-dim': 4096})
=> creating model 'alexnet'
Model(
  (backbone): AlexNet(
    (features): Sequential(
      (0): Conv2d(3, 64, kernel_size=(11, 11), stride=(4, 4), padding=(2, 2))
      (1): ReLU(inplace=True)
      (2): MaxPool2d(kernel_size=3, stride=2, padding=0, dilation=1, ceil_mode=False)
      (3): Conv2d(64, 192, kernel_size=(5, 5), stride=(1, 1), padding=(2, 2))
      (4): ReLU(inplace=True)
      (5): MaxPool2d(kernel_size=3, stride=2, padding=0, dilation=1, ceil_mode=False)
      (6): Conv2d(192, 384, kernel_size=(3, 3), stride=(1, 1), padding=(1, 1))
      (7): ReLU(inplace=True)
      (8): Conv2d(384, 256, kernel_size=(3, 3), stride=(1, 1), padding=(1, 1))
      (9): ReLU(inplace=True)
      (10): Conv2d(256, 256, kernel_size=(3, 3), stride=(1, 1), padding=(1, 1))
      (11): ReLU(inplace=True)
      (12): MaxPool2d(kernel_size=3, stride=2, padding=0, dilation=1, ceil_mode=False)
    )
    (avgpool): AdaptiveAvgPool2d(output_size=(6, 6))
    (classifier): Sequential(
      (0): Dropout(p=0.5, inplace=False)
      (1): Linear(in_features=9216, out_features=4096, bias=True)
      (2): ReLU(inplace=True)
      (3): Dropout(p=0.5, inplace=False)
      (4): Linear(in_features=4096, out_features=4096, bias=True)
      (5): ReLU(inplace=True)
      (6): Linear(in_features=4096, out_features=1000, bias=True)
    )
    (fc): Identity()
  )
  (classifier_head): MLPhead(
    (mlp): Sequential(
      (0): Linear(in_features=1000, out_features=4096, bias=True)
      (1): BatchNorm1d(4096, eps=1e-05, momentum=0.1, affine=True, track_running_stats=True)
      (2): LeakyReLU(negative_slope=0.01)
      (3): Linear(in_features=4096, out_features=4096, bias=True)
      (4): BatchNorm1d(4096, eps=1e-05, momentum=0.1, affine=True, track_running_stats=True)
      (5): LeakyReLU(negative_slope=0.01)
      (6): Linear(in_features=4096, out_features=128, bias=True)
    )
  )
  (classifier_final): Linear(in_features=128, out_features=10, bias=False)
)
=> loading checkpoint './saved/cifar10/alexnet/full-cifar10/from_150eps/model_best.pth.tar'
=> loaded pre-trained model './saved/cifar10/alexnet/full-cifar10/from_150eps/model_best.pth.tar' (epoch 250)
=> using 1 GPUs.
Test: [  0/313]	Time  1.630 ( 1.630)
Test: [ 10/313]	Time  0.067 ( 0.210)
Test: [ 20/313]	Time  0.065 ( 0.141)
Test: [ 30/313]	Time  0.070 ( 0.117)
…
